…
el.fit(ds_train, epochs=1, steps_per_epoch=70, callbacks=callbacks)</p> <ul> <li>We'll see the model training progress like the following in the     logs:</li> </ul> <p>Learning rate for epoch 1 is 0.0010000000474974513</p> <p>70/70 [========] - 16s 136ms/step - loss: 1.2853</p> <p>- accuracy: 0.5382 - lr: 0.0010</p> <p>Here's the summary of the model architecture in the logs:</p> <p>Model: \\\"sequential\\\"</p> <p>________________________________________________________________</p> <p>Layer (type) Output Shape Param #</p> <p>================================================== conv2d (Conv2D) (None, 26, 26, 32) 320 max_pooling2d (MaxPooling2D) (None, 13, 13, 32) 0 conv2d_1 (Conv2D) (None, 11, 11, 64) 18496 max_pooling2d_1 (MaxPooling2D) (None, 5, 5, 64) 0 conv2d_2 (Conv2D) (None, 3, 3, 64) 36928 flatten (Flatten) (None, 576) 0 dense (Dense) (None, 64) 36928 dense_1 (Dense) (None, 10) 650</p> <p>==================================================</p> <p>Total params: 93,322</p> <p>Trainable params: 93,322</p> <p>Non-trainable params: 0</p> <ul> <li>Based on this summary, 93,000 parameters will be trained during the     process. The shape and the number of parameters in each layer can     also be found in the summary.</li> </ul>"},{"location":"Spanda%20Bootcamp%20Day%202/#distribute
…
